__________________________________________________________________________________________________
Layer (type)                    Output Shape         Param #     Connected to                     
==================================================================================================
input_1 (InputLayer)            (None, 128, 128, 3)  0                                            
__________________________________________________________________________________________________
lambda_1 (Lambda)               (None, 128, 128, 3)  0           input_1[0][0]                    
__________________________________________________________________________________________________
conv2d_1 (Conv2D)               (None, 128, 128, 64) 1792        lambda_1[0][0]                   
__________________________________________________________________________________________________
conv2d_2 (Conv2D)               (None, 128, 128, 64) 36928       conv2d_1[0][0]                   
__________________________________________________________________________________________________
max_pooling2d_1 (MaxPooling2D)  (None, 64, 64, 64)   0           conv2d_2[0][0]                   
__________________________________________________________________________________________________
conv2d_3 (Conv2D)               (None, 64, 64, 128)  73856       max_pooling2d_1[0][0]            
__________________________________________________________________________________________________
conv2d_4 (Conv2D)               (None, 64, 64, 128)  147584      conv2d_3[0][0]                   
__________________________________________________________________________________________________
max_pooling2d_2 (MaxPooling2D)  (None, 32, 32, 128)  0           conv2d_4[0][0]                   
__________________________________________________________________________________________________
conv2d_5 (Conv2D)               (None, 32, 32, 256)  295168      max_pooling2d_2[0][0]            
__________________________________________________________________________________________________
conv2d_6 (Conv2D)               (None, 32, 32, 256)  590080      conv2d_5[0][0]                   
__________________________________________________________________________________________________
max_pooling2d_3 (MaxPooling2D)  (None, 16, 16, 256)  0           conv2d_6[0][0]                   
__________________________________________________________________________________________________
conv2d_7 (Conv2D)               (None, 16, 16, 512)  1180160     max_pooling2d_3[0][0]            
__________________________________________________________________________________________________
conv2d_8 (Conv2D)               (None, 16, 16, 512)  2359808     conv2d_7[0][0]                   
__________________________________________________________________________________________________
max_pooling2d_4 (MaxPooling2D)  (None, 8, 8, 512)    0           conv2d_8[0][0]                   
__________________________________________________________________________________________________
conv2d_9 (Conv2D)               (None, 8, 8, 1024)   4719616     max_pooling2d_4[0][0]            
__________________________________________________________________________________________________
conv2d_10 (Conv2D)              (None, 8, 8, 1024)   9438208     conv2d_9[0][0]                   
__________________________________________________________________________________________________
conv2d_transpose_1 (Conv2DTrans (None, 16, 16, 512)  2097664     conv2d_10[0][0]                  
__________________________________________________________________________________________________
concatenate_1 (Concatenate)     (None, 16, 16, 1024) 0           conv2d_transpose_1[0][0]         
                                                                 conv2d_8[0][0]                   
__________________________________________________________________________________________________
conv2d_11 (Conv2D)              (None, 16, 16, 512)  4719104     concatenate_1[0][0]              
__________________________________________________________________________________________________
conv2d_12 (Conv2D)              (None, 16, 16, 512)  2359808     conv2d_11[0][0]                  
__________________________________________________________________________________________________
conv2d_transpose_2 (Conv2DTrans (None, 32, 32, 256)  524544      conv2d_12[0][0]                  
__________________________________________________________________________________________________
concatenate_2 (Concatenate)     (None, 32, 32, 512)  0           conv2d_transpose_2[0][0]         
                                                                 conv2d_6[0][0]                   
__________________________________________________________________________________________________
conv2d_13 (Conv2D)              (None, 32, 32, 256)  1179904     concatenate_2[0][0]              
__________________________________________________________________________________________________
conv2d_14 (Conv2D)              (None, 32, 32, 256)  590080      conv2d_13[0][0]                  
__________________________________________________________________________________________________
conv2d_transpose_3 (Conv2DTrans (None, 64, 64, 128)  131200      conv2d_14[0][0]                  
__________________________________________________________________________________________________
concatenate_3 (Concatenate)     (None, 64, 64, 256)  0           conv2d_transpose_3[0][0]         
                                                                 conv2d_4[0][0]                   
__________________________________________________________________________________________________
conv2d_15 (Conv2D)              (None, 64, 64, 128)  295040      concatenate_3[0][0]              
__________________________________________________________________________________________________
conv2d_16 (Conv2D)              (None, 64, 64, 128)  147584      conv2d_15[0][0]                  
__________________________________________________________________________________________________
conv2d_transpose_4 (Conv2DTrans (None, 128, 128, 64) 32832       conv2d_16[0][0]                  
__________________________________________________________________________________________________
concatenate_4 (Concatenate)     (None, 128, 128, 128 0           conv2d_transpose_4[0][0]         
                                                                 conv2d_2[0][0]                   
__________________________________________________________________________________________________
conv2d_17 (Conv2D)              (None, 128, 128, 64) 73792       concatenate_4[0][0]              
__________________________________________________________________________________________________
conv2d_18 (Conv2D)              (None, 128, 128, 64) 36928       conv2d_17[0][0]                  
__________________________________________________________________________________________________
conv2d_19 (Conv2D)              (None, 128, 128, 2)  1154        conv2d_18[0][0]                  
__________________________________________________________________________________________________
conv2d_20 (Conv2D)              (None, 128, 128, 1)  3           conv2d_19[0][0]                  
==================================================================================================
Total params: 31,032,837
Trainable params: 31,032,837
Non-trainable params: 0
__________________________________________________________________________________________________
## Train IDs
['16c3d5935ba94b720becc24b7a05741c26149e221e3401924080f41e2f891368
…
